…
Layer (type)                    Output Shape         Param #     Connected to                     
==================================================================================================
signals (InputLayer)            [(None, 2048, 15)]   0                                            
__________________________________________________________________________________________________
mask (InputLayer)               [(None, 15)]         0                                            
__________________________________________________________________________________________________
tf_op_layer_ExpandDims_2 (Tenso [(None, 2048, 15, 1) 0           signals[0][0]                    
__________________________________________________________________________________________________
tf_op_layer_ExpandDims (TensorF [(None, 1, 15)]      0           mask[0][0]                       
__________________________________________________________________________________________________
conv2d (Conv2D)                 (None, 2048, 15, 128 2176        tf_op_layer_ExpandDims_2[0][0]   
__________________________________________________________________________________________________
tf_op_layer_ExpandDims_1 (Tenso [(None, 1, 15, 1)]   0           tf_op_layer_ExpandDims[0][0]     
__________________________________________________________________________________________________
conv2d_1 (Conv2D)               (None, 128, 15, 128) 262272      conv2d[0][0]                     
__________________________________________________________________________________________________
tf_op_layer_mul (TensorFlowOpLa [(None, 128, 15, 128 0           conv2d_1[0][0]                   
                                                                 tf_op_layer_ExpandDims_1[0][0]   
__________________________________________________________________________________________________
tf_op_layer_strided_slice (Tens [(None, 128, 1, 128) 0           tf_op_layer_mul[0][0]            
__________________________________________________________________________________________________
tf_op_layer_strided_slice_1 (Te [(None, 128, 1, 128) 0           tf_op_layer_mul[0][0]            
__________________________________________________________________________________________________
tf_op_layer_strided_slice_2 (Te [(None, 128, 4, 128) 0           tf_op_layer_mul[0][0]            
__________________________________________________________________________________________________
tf_op_layer_strided_slice_3 (Te [(None, 128, 9, 128) 0           tf_op_layer_mul[0][0]            
__________________________________________________________________________________________________
tf_op_layer_strided_slice_4 (Te [(None, 1, 1, 1)]    0           tf_op_layer_ExpandDims_1[0][0]   
__________________________________________________________________________________________________
batch_normalization (BatchNorma (None, 128, 1, 128)  512         tf_op_layer_strided_slice[0][0]  
__________________________________________________________________________________________________
tf_op_layer_strided_slice_5 (Te [(None, 1, 1, 1)]    0           tf_op_layer_ExpandDims_1[0][0]   
__________________________________________________________________________________________________
batch_normalization_2 (BatchNor (None, 128, 1, 128)  512         tf_op_layer_strided_slice_1[0][0]
__________________________________________________________________________________________________
tf_op_layer_strided_slice_6 (Te [(None, 1, 4, 1)]    0           tf_op_layer_ExpandDims_1[0][0]   
__________________________________________________________________________________________________
batch_normalization_4 (BatchNor (None, 128, 4, 128)  512         tf_op_layer_strided_slice_2[0][0]
__________________________________________________________________________________________________
tf_op_layer_strided_slice_7 (Te [(None, 1, 9, 1)]    0           tf_op_layer_ExpandDims_1[0][0]   
__________________________________________________________________________________________________
batch_normalization_6 (BatchNor (None, 128, 9, 128)  512         tf_op_layer_strided_slice_3[0][0]
__________________________________________________________________________________________________
tf_op_layer_Mul_1 (TensorFlowOp [(None, 128, 1, 128) 0           tf_op_layer_strided_slice_4[0][0]
                                                                 batch_normalization[0][0]        
__________________________________________________________________________________________________
tf_op_layer_Mul_3 (TensorFlowOp [(None, 128, 1, 128) 0           tf_op_layer_strided_slice_5[0][0]
                                                                 batch_normalization_2[0][0]      
__________________________________________________________________________________________________
tf_op_layer_Mul_5 (TensorFlowOp [(None, 128, 4, 128) 0           tf_op_layer_strided_slice_6[0][0]
                                                                 batch_normalization_4[0][0]      
__________________________________________________________________________________________________
tf_op_layer_Mul_7 (TensorFlowOp [(None, 128, 9, 128) 0           tf_op_layer_strided_slice_7[0][0]
                                                                 batch_normalization_6[0][0]      
__________________________________________________________________________________________________
activation (Activation)         (None, 128, 1, 128)  0           tf_op_layer_Mul_1[0][0]          
__________________________________________________________________________________________________
activation_2 (Activation)       (None, 128, 1, 128)  0           tf_op_layer_Mul_3[0][0]          
__________________________________________________________________________________________________
activation_4 (Activation)       (None, 128, 4, 128)  0           tf_op_layer_Mul_5[0][0]          
__________________________________________________________________________________________________
activation_6 (Activation)       (None, 128, 9, 128)  0           tf_op_layer_Mul_7[0][0]          
__________________________________________________________________________________________________
conv2d_2 (Conv2D)               (None, 128, 1, 128)  131072      activation[0][0]                 
__________________________________________________________________________________________________
conv2d_4 (Conv2D)               (None, 128, 1, 128)  131072      activation_2[0][0]               
__________________________________________________________________________________________________
conv2d_6 (Conv2D)               (None, 128, 4, 128)  131072      activation_4[0][0]               
__________________________________________________________________________________________________
conv2d_8 (Conv2D)               (None, 128, 9, 128)  131072      activation_6[0][0]               
__________________________________________________________________________________________________
batch_normalization_1 (BatchNor (None, 128, 1, 128)  512         conv2d_2[0][0]                   
__________________________________________________________________________________________________
batch_normalization_3 (BatchNor (None, 128, 1, 128)  512         conv2d_4[0][0]                   
__________________________________________________________________________________________________
batch_normalization_5 (BatchNor (None, 128, 4, 128)  512         conv2d_6[0][0]                   
__________________________________________________________________________________________________
batch_normalization_7 (BatchNor (None, 128, 9, 128)  512         conv2d_8[0][0]                   
__________________________________________________________________________________________________
tf_op_layer_Mul_2 (TensorFlowOp [(None, 128, 1, 128) 0           tf_op_layer_strided_slice_4[0][0]
                                                                 batch_normalization_1[0][0]      
__________________________________________________________________________________________________
tf_op_layer_Mul_4 (TensorFlowOp [(None, 128, 1, 128) 0           tf_op_layer_strided_slice_5[0][0]
                                                                 batch_normalization_3[0][0]      
__________________________________________________________________________________________________
tf_op_layer_Mul_6 (TensorFlowOp [(None, 128, 4, 128) 0           tf_op_layer_strided_slice_6[0][0]
                                                                 batch_normalization_5[0][0]      
__________________________________________________________________________________________________
tf_op_layer_Mul_8 (TensorFlowOp [(None, 128, 9, 128) 0           tf_op_layer_strided_slice_7[0][0]
                                                                 batch_normalization_7[0][0]      
__________________________________________________________________________________________________
activation_1 (Activation)       (None, 128, 1, 128)  0           tf_op_layer_Mul_2[0][0]          
__________________________________________________________________________________________________
activation_3 (Activation)       (None, 128, 1, 128)  0           tf_op_layer_Mul_4[0][0]          
__________________________________________________________________________________________________
activation_5 (Activation)       (None, 128, 4, 128)  0           tf_op_layer_Mul_6[0][0]          
__________________________________________________________________________________________________
activation_7 (Activation)       (None, 128, 9, 128)  0           tf_op_layer_Mul_8[0][0]          
__________________________________________________________________________________________________
conv2d_3 (Conv2D)               (None, 128, 1, 128)  131072      activation_1[0][0]               
__________________________________________________________________________________________________
conv2d_5 (Conv2D)               (None, 128, 1, 128)  131072      activation_3[0][0]               
__________________________________________________________________________________________________
conv2d_7 (Conv2D)               (None, 128, 4, 128)  131072      activation_5[0][0]               
__________________________________________________________________________________________________
conv2d_9 (Conv2D)               (None, 128, 9, 128)  131072      activation_7[0][0]               
__________________________________________________________________________________________________
tf_op_layer_add (TensorFlowOpLa [(None, 128, 1, 128) 0           conv2d_3[0][0]                   
                                                                 tf_op_layer_strided_slice[0][0]  
__________________________________________________________________________________________________
tf_op_layer_add_1 (TensorFlowOp [(None, 128, 1, 128) 0           conv2d_5[0][0]                   
                                                                 tf_op_layer_strided_slice_1[0][0]
__________________________________________________________________________________________________
tf_op_layer_add_2 (TensorFlowOp [(None, 128, 4, 128) 0           conv2d_7[0][0]                   
                                                                 tf_op_layer_strided_slice_2[0][0]
__________________________________________________________________________________________________
tf_op_layer_add_3 (TensorFlowOp [(None, 128, 9, 128) 0           conv2d_9[0][0]                   
                                                                 tf_op_layer_strided_slice_3[0][0]
__________________________________________________________________________________________________
tf_op_layer_strided_slice_8 (Te [(None, 1, 1, 1)]    0           tf_op_layer_ExpandDims_1[0][0]   
__________________________________________________________________________________________________
batch_normalization_8 (BatchNor (None, 128, 1, 128)  512         tf_op_layer_add[0][0]            
__________________________________________________________________________________________________
tf_op_layer_strided_slice_9 (Te [(None, 1, 1, 1)]    0           tf_op_layer_ExpandDims_1[0][0]   
__________________________________________________________________________________________________
batch_normalization_10 (BatchNo (None, 128, 1, 128)  512         tf_op_layer_add_1[0][0]          
__________________________________________________________________________________________________
tf_op_layer_strided_slice_10 (T [(None, 1, 4, 1)]    0           tf_op_layer_ExpandDims_1[0][0]   
__________________________________________________________________________________________________
batch_normalization_12 (BatchNo (None, 128, 4, 128)  512         tf_op_layer_add_2[0][0]          
__________________________________________________________________________________________________
tf_op_layer_strided_slice_11 (T [(None, 1, 9, 1)]    0           tf_op_layer_ExpandDims_1[0][0]   
__________________________________________________________________________________________________
batch_normalization_14 (BatchNo (None, 128, 9, 128)  512         tf_op_layer_add_3[0][0]          
__________________________________________________________________________________________________
tf_op_layer_Mul_9 (TensorFlowOp [(None, 128, 1, 128) 0           tf_op_layer_strided_slice_8[0][0]
                                                                 batch_normalization_8[0][0]      
__________________________________________________________________________________________________
tf_op_layer_Mul_11 (TensorFlowO [(None, 128, 1, 128) 0           tf_op_layer_strided_slice_9[0][0]
                                                                 batch_normalization_10[0][0]     
__________________________________________________________________________________________________
tf_op_layer_Mul_13 (TensorFlowO [(None, 128, 4, 128) 0           tf_op_layer_strided_slice_10[0][0
                                                                 batch_normalization_12[0][0]     
__________________________________________________________________________________________________
tf_op_layer_Mul_15 (TensorFlowO [(None, 128, 9, 128) 0           tf_op_layer_strided_slice_11[0][0
                                                                 batch_normalization_14[0][0]     
__________________________________________________________________________________________________
activation_8 (Activation)       (None, 128, 1, 128)  0           tf_op_layer_Mul_9[0][0]          
__________________________________________________________________________________________________
activation_10 (Activation)      (None, 128, 1, 128)  0           tf_op_layer_Mul_11[0][0]         
__________________________________________________________________________________________________
activation_12 (Activation)      (None, 128, 4, 128)  0           tf_op_layer_Mul_13[0][0]         
__________________________________________________________________________________________________
activation_14 (Activation)      (None, 128, 9, 128)  0           tf_op_layer_Mul_15[0][0]         
__________________________________________________________________________________________________
conv2d_10 (Conv2D)              (None, 128, 1, 128)  131072      activation_8[0][0]               
__________________________________________________________________________________________________
conv2d_12 (Conv2D)              (None, 128, 1, 128)  131072      activation_10[0][0]              
__________________________________________________________________________________________________
conv2d_14 (Conv2D)              (None, 128, 4, 128)  131072      activation_12[0][0]              
__________________________________________________________________________________________________
conv2d_16 (Conv2D)              (None, 128, 9, 128)  131072      activation_14[0][0]              
__________________________________________________________________________________________________
batch_normalization_9 (BatchNor (None, 128, 1, 128)  512         conv2d_10[0][0]                  
__________________________________________________________________________________________________
batch_normalization_11 (BatchNo (None, 128, 1, 128)  512         conv2d_12[0][0]                  
__________________________________________________________________________________________________
batch_normalization_13 (BatchNo (None, 128, 4, 128)  512         conv2d_14[0][0]                  
__________________________________________________________________________________________________
batch_normalization_15 (BatchNo (None, 128, 9, 128)  512         conv2d_16[0][0]                  
__________________________________________________________________________________________________
tf_op_layer_Mul_10 (TensorFlowO [(None, 128, 1, 128) 0           tf_op_layer_strided_slice_8[0][0]
                                                                 batch_normalization_9[0][0]      
__________________________________________________________________________________________________
tf_op_layer_Mul_12 (TensorFlowO [(None, 128, 1, 128) 0           tf_op_layer_strided_slice_9[0][0]
                                                                 batch_normalization_11[0][0]     
__________________________________________________________________________________________________
tf_op_layer_Mul_14 (TensorFlowO [(None, 128, 4, 128) 0           tf_op_layer_strided_slice_10[0][0
                                                                 batch_normalization_13[0][0]     
__________________________________________________________________________________________________
tf_op_layer_Mul_16 (TensorFlowO [(None, 128, 9, 128) 0           tf_op_layer_strided_slice_11[0][0
                                                                 batch_normalization_15[0][0]     
__________________________________________________________________________________________________
activation_9 (Activation)       (None, 128, 1, 128)  0           tf_op_layer_Mul_10[0][0]         
__________________________________________________________________________________________________
activation_11 (Activation)      (None, 128, 1, 128)  0           tf_op_layer_Mul_12[0][0]         
__________________________________________________________________________________________________
activation_13 (Activation)      (None, 128, 4, 128)  0           tf_op_layer_Mul_14[0][0]         
__________________________________________________________________________________________________
activation_15 (Activation)      (None, 128, 9, 128)  0           tf_op_layer_Mul_16[0][0]         
__________________________________________________________________________________________________
conv2d_11 (Conv2D)              (None, 128, 1, 128)  131072      activation_9[0][0]               
__________________________________________________________________________________________________
conv2d_13 (Conv2D)              (None, 128, 1, 128)  131072      activation_11[0][0]              
__________________________________________________________________________________________________
conv2d_15 (Conv2D)              (None, 128, 4, 128)  131072      activation_13[0][0]              
__________________________________________________________________________________________________
conv2d_17 (Conv2D)              (None, 128, 9, 128)  131072      activation_15[0][0]              
__________________________________________________________________________________________________
tf_op_layer_add_4 (TensorFlowOp [(None, 128, 1, 128) 0           conv2d_11[0][0]                  
                                                                 tf_op_layer_add[0][0]            
__________________________________________________________________________________________________
tf_op_layer_add_5 (TensorFlowOp [(None, 128, 1, 128) 0           conv2d_13[0][0]                  
                                                                 tf_op_layer_add_1[0][0]          
__________________________________________________________________________________________________
tf_op_layer_add_6 (TensorFlowOp [(None, 128, 4, 128) 0           conv2d_15[0][0]                  
                                                                 tf_op_layer_add_2[0][0]          
__________________________________________________________________________________________________
tf_op_layer_add_7 (TensorFlowOp [(None, 128, 9, 128) 0           conv2d_17[0][0]                  
                                                                 tf_op_layer_add_3[0][0]          
__________________________________________________________________________________________________
tf_op_layer_strided_slice_12 (T [(None, 1, 1, 1)]    0           tf_op_layer_ExpandDims_1[0][0]   
__________________________________________________________________________________________________
batch_normalization_16 (BatchNo (None, 128, 1, 128)  512         tf_op_layer_add_4[0][0]          
__________________________________________________________________________________________________
tf_op_layer_strided_slice_13 (T [(None, 1, 1, 1)]    0           tf_op_layer_ExpandDims_1[0][0]   
__________________________________________________________________________________________________
batch_normalization_18 (BatchNo (None, 128, 1, 128)  512         tf_op_layer_add_5[0][0]          
__________________________________________________________________________________________________
tf_op_layer_strided_slice_14 (T [(None, 1, 4, 1)]    0           tf_op_layer_ExpandDims_1[0][0]   
__________________________________________________________________________________________________
batch_normalization_20 (BatchNo (None, 128, 4, 128)  512         tf_op_layer_add_6[0][0]          
__________________________________________________________________________________________________
tf_op_layer_strided_slice_15 (T [(None, 1, 9, 1)]    0           tf_op_layer_ExpandDims_1[0][0]   
__________________________________________________________________________________________________
batch_normalization_22 (BatchNo (None, 128, 9, 128)  512         tf_op_layer_add_7[0][0]          
__________________________________________________________________________________________________
tf_op_layer_Mul_17 (TensorFlowO [(None, 128, 1, 128) 0           tf_op_layer_strided_slice_12[0][0
                                                                 batch_normalization_16[0][0]     
__________________________________________________________________________________________________
tf_op_layer_Mul_19 (TensorFlowO [(None, 128, 1, 128) 0           tf_op_layer_strided_slice_13[0][0
                                                                 batch_normalization_18[0][0]     
__________________________________________________________________________________________________
tf_op_layer_Mul_21 (TensorFlowO [(None, 128, 4, 128) 0           tf_op_layer_strided_slice_14[0][0
                                                                 batch_normalization_20[0][0]     
__________________________________________________________________________________________________
tf_op_layer_Mul_23 (TensorFlowO [(None, 128, 9, 128) 0           tf_op_layer_strided_slice_15[0][0
                                                                 batch_normalization_22[0][0]     
__________________________________________________________________________________________________
activation_16 (Activation)      (None, 128, 1, 128)  0           tf_op_layer_Mul_17[0][0]         
__________________________________________________________________________________________________
activation_18 (Activation)      (None, 128, 1, 128)  0           tf_op_layer_Mul_19[0][0]         
__________________________________________________________________________________________________
activation_20 (Activation)      (None, 128, 4, 128)  0           tf_op_layer_Mul_21[0][0]         
__________________________________________________________________________________________________
activation_22 (Activation)      (None, 128, 9, 128)  0           tf_op_layer_Mul_23[0][0]         
__________________________________________________________________________________________________
conv2d_18 (Conv2D)              (None, 128, 1, 128)  131072      activation_16[0][0]              
__________________________________________________________________________________________________
conv2d_20 (Conv2D)              (None, 128, 1, 128)  131072      activation_18[0][0]              
__________________________________________________________________________________________________
conv2d_22 (Conv2D)              (None, 128, 4, 128)  131072      activation_20[0][0]              
__________________________________________________________________________________________________
conv2d_24 (Conv2D)              (None, 128, 9, 128)  131072      activation_22[0][0]              
__________________________________________________________________________________________________
batch_normalization_17 (BatchNo (None, 128, 1, 128)  512         conv2d_18[0][0]                  
__________________________________________________________________________________________________
batch_normalization_19 (BatchNo (None, 128, 1, 128)  512         conv2d_20[0][0]                  
__________________________________________________________________________________________________
batch_normalization_21 (BatchNo (None, 128, 4, 128)  512         conv2d_22[0][0]                  
__________________________________________________________________________________________________
batch_normalization_23 (BatchNo (None, 128, 9, 128)  512         conv2d_24[0][0]                  
__________________________________________________________________________________________________
tf_op_layer_Mul_18 (TensorFlowO [(None, 128, 1, 128) 0           tf_op_layer_strided_slice_12[0][0
                                                                 batch_normalization_17[0][0]     
__________________________________________________________________________________________________
tf_op_layer_Mul_20 (TensorFlowO [(None, 128, 1, 128) 0           tf_op_layer_strided_slice_13[0][0
                                                                 batch_normalization_19[0][0]     
__________________________________________________________________________________________________
tf_op_layer_Mul_22 (TensorFlowO [(None, 128, 4, 128) 0           tf_op_layer_strided_slice_14[0][0
                                                                 batch_normalization_21[0][0]     
__________________________________________________________________________________________________
tf_op_layer_Mul_24 (TensorFlowO [(None, 128, 9, 128) 0           tf_op_layer_strided_slice_15[0][0
                                                                 batch_normalization_23[0][0]     
__________________________________________________________________________________________________
activation_17 (Activation)      (None, 128, 1, 128)  0           tf_op_layer_Mul_18[0][0]         
__________________________________________________________________________________________________
activation_19 (Activation)      (None, 128, 1, 128)  0           tf_op_layer_Mul_20[0][0]         
__________________________________________________________________________________________________
activation_21 (Activation)      (None, 128, 4, 128)  0           tf_op_layer_Mul_22[0][0]         
__________________________________________________________________________________________________
activation_23 (Activation)      (None, 128, 9, 128)  0           tf_op_layer_Mul_24[0][0]         
__________________________________________________________________________________________________
conv2d_19 (Conv2D)              (None, 128, 1, 128)  131072      activation_17[0][0]              
__________________________________________________________________________________________________
conv2d_21 (Conv2D)              (None, 128, 1, 128)  131072      activation_19[0][0]              
__________________________________________________________________________________________________
conv2d_23 (Conv2D)              (None, 128, 4, 128)  131072      activation_21[0][0]              
__________________________________________________________________________________________________
conv2d_25 (Conv2D)              (None, 128, 9, 128)  131072      activation_23[0][0]              
__________________________________________________________________________________________________
tf_op_layer_add_8 (TensorFlowOp [(None, 128, 1, 128) 0           conv2d_19[0][0]                  
                                                                 tf_op_layer_add_4[0][0]          
__________________________________________________________________________________________________
tf_op_layer_add_9 (TensorFlowOp [(None, 128, 1, 128) 0           conv2d_21[0][0]                  
                                                                 tf_op_layer_add_5[0][0]          
__________________________________________________________________________________________________
tf_op_layer_add_10 (TensorFlowO [(None, 128, 4, 128) 0           conv2d_23[0][0]                  
                                                                 tf_op_layer_add_6[0][0]          
__________________________________________________________________________________________________
tf_op_layer_add_11 (TensorFlowO [(None, 128, 9, 128) 0           conv2d_25[0][0]                  
                                                                 tf_op_layer_add_7[0][0]          
__________________________________________________________________________________________________
tf_op_layer_strided_slice_16 (T [(None, 1, 1, 1)]    0           tf_op_layer_ExpandDims_1[0][0]   
__________________________________________________________________________________________________
batch_normalization_24 (BatchNo (None, 128, 1, 128)  512         tf_op_layer_add_8[0][0]          
__________________________________________________________________________________________________
tf_op_layer_strided_slice_17 (T [(None, 1, 1, 1)]    0           tf_op_layer_ExpandDims_1[0][0]   
__________________________________________________________________________________________________
batch_normalization_26 (BatchNo (None, 128, 1, 128)  512         tf_op_layer_add_9[0][0]          
__________________________________________________________________________________________________
tf_op_layer_strided_slice_18 (T [(None, 1, 4, 1)]    0           tf_op_layer_ExpandDims_1[0][0]   
__________________________________________________________________________________________________
batch_normalization_28 (BatchNo (None, 128, 4, 128)  512         tf_op_layer_add_10[0][0]         
__________________________________________________________________________________________________
tf_op_layer_strided_slice_19 (T [(None, 1, 9, 1)]    0           tf_op_layer_ExpandDims_1[0][0]   
__________________________________________________________________________________________________
batch_normalization_30 (BatchNo (None, 128, 9, 128)  512         tf_op_layer_add_11[0][0]         
__________________________________________________________________________________________________
tf_op_layer_Mul_25 (TensorFlowO [(None, 128, 1, 128) 0           tf_op_layer_strided_slice_16[0][0
                                                                 batch_normalization_24[0][0]     
__________________________________________________________________________________________________
tf_op_layer_Mul_27 (TensorFlowO [(None, 128, 1, 128) 0           tf_op_layer_strided_slice_17[0][0
                                                                 batch_normalization_26[0][0]     
__________________________________________________________________________________________________
tf_op_layer_Mul_29 (TensorFlowO [(None, 128, 4, 128) 0           tf_op_layer_strided_slice_18[0][0
                                                                 batch_normalization_28[0][0]     
__________________________________________________________________________________________________
tf_op_layer_Mul_31 (TensorFlowO [(None, 128, 9, 128) 0           tf_op_layer_strided_slice_19[0][0
                                                                 batch_normalization_30[0][0]     
__________________________________________________________________________________________________
activation_24 (Activation)      (None, 128, 1, 128)  0           tf_op_layer_Mul_25[0][0]         
__________________________________________________________________________________________________
activation_26 (Activation)      (None, 128, 1, 128)  0           tf_op_layer_Mul_27[0][0]         
__________________________________________________________________________________________________
activation_28 (Activation)      (None, 128, 4, 128)  0           tf_op_layer_Mul_29[0][0]         
__________________________________________________________________________________________________
activation_30 (Activation)      (None, 128, 9, 128)  0           tf_op_layer_Mul_31[0][0]         
__________________________________________________________________________________________________
conv2d_26 (Conv2D)              (None, 128, 1, 128)  131072      activation_24[0][0]              
__________________________________________________________________________________________________
conv2d_28 (Conv2D)              (None, 128, 1, 128)  131072      activation_26[0][0]              
__________________________________________________________________________________________________
conv2d_30 (Conv2D)              (None, 128, 4, 128)  131072      activation_28[0][0]              
__________________________________________________________________________________________________
conv2d_32 (Conv2D)              (None, 128, 9, 128)  131072      activation_30[0][0]              
__________________________________________________________________________________________________
batch_normalization_25 (BatchNo (None, 128, 1, 128)  512         conv2d_26[0][0]                  
__________________________________________________________________________________________________
batch_normalization_27 (BatchNo (None, 128, 1, 128)  512         conv2d_28[0][0]                  
__________________________________________________________________________________________________
batch_normalization_29 (BatchNo (None, 128, 4, 128)  512         conv2d_30[0][0]                  
__________________________________________________________________________________________________
batch_normalization_31 (BatchNo (None, 128, 9, 128)  512         conv2d_32[0][0]                  
__________________________________________________________________________________________________
tf_op_layer_strided_slice_20 (T [(None, 1, 1, 1)]    0           tf_op_layer_ExpandDims_1[0][0]   
__________________________________________________________________________________________________
tf_op_layer_Mul_26 (TensorFlowO [(None, 128, 1, 128) 0           tf_op_layer_strided_slice_16[0][0
                                                                 batch_normalization_25[0][0]     
__________________________________________________________________________________________________
tf_op_layer_strided_slice_21 (T [(None, 1, 1, 1)]    0           tf_op_layer_ExpandDims_1[0][0]   
__________________________________________________________________________________________________
tf_op_layer_Mul_28 (TensorFlowO [(None, 128, 1, 128) 0           tf_op_layer_strided_slice_17[0][0
                                                                 batch_normalization_27[0][0]     
__________________________________________________________________________________________________
tf_op_layer_strided_slice_22 (T [(None, 1, 4, 1)]    0           tf_op_layer_ExpandDims_1[0][0]   
__________________________________________________________________________________________________
tf_op_layer_Mul_30 (TensorFlowO [(None, 128, 4, 128) 0           tf_op_layer_strided_slice_18[0][0
                                                                 batch_normalization_29[0][0]     
__________________________________________________________________________________________________
tf_op_layer_strided_slice_23 (T [(None, 1, 9, 1)]    0           tf_op_layer_ExpandDims_1[0][0]   
__________________________________________________________________________________________________
tf_op_layer_Mul_32 (TensorFlowO [(None, 128, 9, 128) 0           tf_op_layer_strided_slice_19[0][0
                                                                 batch_normalization_31[0][0]     
__________________________________________________________________________________________________
tf_op_layer_Sum (TensorFlowOpLa [(None, 1, 1, 1)]    0           tf_op_layer_strided_slice_20[0][0
__________________________________________________________________________________________________
activation_25 (Activation)      (None, 128, 1, 128)  0           tf_op_layer_Mul_26[0][0]         
__________________________________________________________________________________________________
tf_op_layer_Sum_1 (TensorFlowOp [(None, 1, 1, 1)]    0           tf_op_layer_strided_slice_21[0][0
__________________________________________________________________________________________________
activation_27 (Activation)      (None, 128, 1, 128)  0           tf_op_layer_Mul_28[0][0]         
__________________________________________________________________________________________________
tf_op_layer_Sum_2 (TensorFlowOp [(None, 1, 1, 1)]    0           tf_op_layer_strided_slice_22[0][0
__________________________________________________________________________________________________
activation_29 (Activation)      (None, 128, 4, 128)  0           tf_op_layer_Mul_30[0][0]         
__________________________________________________________________________________________________
tf_op_layer_Sum_3 (TensorFlowOp [(None, 1, 1, 1)]    0           tf_op_layer_strided_slice_23[0][0
__________________________________________________________________________________________________
activation_31 (Activation)      (None, 128, 9, 128)  0           tf_op_layer_Mul_32[0][0]         
__________________________________________________________________________________________________
tf_op_layer_Maximum (TensorFlow [(None, 1, 1, 1)]    0           tf_op_layer_Sum[0][0]            
__________________________________________________________________________________________________
conv2d_27 (Conv2D)              (None, 128, 1, 128)  131072      activation_25[0][0]              
__________________________________________________________________________________________________
tf_op_layer_Maximum_1 (TensorFl [(None, 1, 1, 1)]    0           tf_op_layer_Sum_1[0][0]          
__________________________________________________________________________________________________
conv2d_29 (Conv2D)              (None, 128, 1, 128)  131072      activation_27[0][0]              
__________________________________________________________________________________________________
tf_op_layer_Maximum_2 (TensorFl [(None, 1, 1, 1)]    0           tf_op_layer_Sum_2[0][0]          
__________________________________________________________________________________________________
conv2d_31 (Conv2D)              (None, 128, 4, 128)  131072      activation_29[0][0]              
__________________________________________________________________________________________________
tf_op_layer_Maximum_3 (TensorFl [(None, 1, 1, 1)]    0           tf_op_layer_Sum_3[0][0]          
__________________________________________________________________________________________________
conv2d_33 (Conv2D)              (None, 128, 9, 128)  131072      activation_31[0][0]              
__________________________________________________________________________________________________
tf_op_layer_strided_slice_24 (T [(None, 1, 1, 1)]    0           tf_op_layer_ExpandDims_1[0][0]   
__________________________________________________________________________________________________
tf_op_layer_strided_slice_25 (T [(None, 1, 1, 1)]    0           tf_op_layer_ExpandDims_1[0][0]   
…
tf_op_layer_Any_1 (TensorFlowOp [(None, 1, 1, 1)]    0           tf_op_layer_Greater_1[0][0]      
__________________________________________________________________________________________________
tf_op_layer_Any_2 (TensorFlowOp [(None, 1, 1, 1)]    0           tf_op_layer_Greater_2[0][0]      
__________________________________________________________________________________________________
tf_op_layer_Any_3 (TensorFlowOp [(None, 1, 1, 1)]    0           tf_op_layer_Greater_3[0][0]      
__________________________________________________________________________________________________
tf_op_layer_Sum_4 (TensorFlowOp [(None, 128, 1, 128) 0           tf_op_layer_mul_33[0][0]         
__________________________________________________________________________________________________
tf_op_layer_Sum_5 (TensorFlowOp [(None, 128, 1, 128) 0           tf_op_layer_mul_34[0][0]         
__________________________________________________________________________________________________
tf_op_layer_Sum_6 (TensorFlowOp [(None, 128, 1, 128) 0           tf_op_layer_mul_35[0][0]         
__________________________________________________________________________________________________
tf_op_layer_Sum_7 (TensorFlowOp [(None, 128, 1, 128) 0           tf_op_layer_mul_36[0][0]         
__________________________________________________________________________________________________
tf_op_layer_concat_1 (TensorFlo [(None, 1, 4, 1)]    0           tf_op_layer_Any[0][0]            
                                                                 tf_op_layer_Any_1[0][0]          
                                                                 tf_op_layer_Any_2[0][0]          
                                                                 tf_op_layer_Any_3[0][0]          
__________________________________________________________________________________________________
tf_op_layer_concat (TensorFlowO [(None, 128, 4, 128) 0           tf_op_layer_Sum_4[0][0]          
                                                                 tf_op_layer_Sum_5[0][0]          
                                                                 tf_op_layer_Sum_6[0][0]          
                                                                 tf_op_layer_Sum_7[0][0]          
__________________________________________________________________________________________________
tf_op_layer_Cast (TensorFlowOpL [(None, 1, 4, 1)]    0           tf_op_layer_concat_1[0][0]       
__________________________________________________________________________________________________
batch_normalization_32 (BatchNo (None, 128, 4, 128)  512         tf_op_layer_concat[0][0]         
__________________________________________________________________________________________________
tf_op_layer_Mul_37 (TensorFlowO [(None, 128, 4, 128) 0           tf_op_layer_Cast[0][0]           
                                                                 batch_normalization_32[0][0]     
__________________________________________________________________________________________________
activation_32 (Activation)      (None, 128, 4, 128)  0           tf_op_layer_Mul_37[0][0]         
__________________________________________________________________________________________________
conv2d_34 (Conv2D)              (None, 128, 4, 128)  131072      activation_32[0][0]              
__________________________________________________________________________________________________
batch_normalization_33 (BatchNo (None, 128, 4, 128)  512         conv2d_34[0][0]                  
__________________________________________________________________________________________________
activation_33 (Activation)      (None, 128, 4, 128)  0           batch_normalization_33[0][0]     
__________________________________________________________________________________________________
tf_op_layer_strided_slice_28 (T [(None, 32, 4, 128)] 0           tf_op_layer_concat[0][0]         
__________________________________________________________________________________________________
tf_op_layer_Sum_8 (TensorFlowOp [(None, 1, 1)]       0           tf_op_layer_Cast[0][0]           
__________________________________________________________________________________________________
conv2d_35 (Conv2D)              (None, 32, 1, 128)   524288      activation_33[0][0]              
__________________________________________________________________________________________________
tf_op_layer_Sum_9 (TensorFlowOp [(None, 32, 128)]    0           tf_op_layer_strided_slice_28[0][0
__________________________________________________________________________________________________
tf_op_layer_Maximum_4 (TensorFl [(None, 1, 1)]       0           tf_op_layer_Sum_8[0][0]          
…
tf_op_layer_truediv_4 (TensorFl [(None, 32, 128)]    0           tf_op_layer_Sum_9[0][0]          
                                                                 tf_op_layer_Maximum_4[0][0]      
__________________________________________________________________________________________________
tf_op_layer_add_16 (TensorFlowO [(None, 32, 128)]    0           tf_op_layer_Squeeze[0][0]        
                                                                 tf_op_layer_truediv_4[0][0]      
__________________________________________________________________________________________________
batch_normalization_34 (BatchNo (None, 32, 128)      512         tf_op_layer_add_16[0][0]         
__________________________________________________________________________________________________
activation_34 (Activation)      (None, 32, 128)      0           batch_normalization_34[0][0]     
__________________________________________________________________________________________________
conv1d (Conv1D)                 (None, 32, 128)      65536       activation_34[0][0]              
__________________________________________________________________________________________________
batch_normalization_35 (BatchNo (None, 32, 128)      512         conv1d[0][0]                     
__________________________________________________________________________________________________
activation_35 (Activation)      (None, 32, 128)      0           batch_normalization_35[0][0]     
__________________________________________________________________________________________________
conv1d_1 (Conv1D)               (None, 32, 128)      65536       activation_35[0][0]              
__________________________________________________________________________________________________
tf_op_layer_add_17 (TensorFlowO [(None, 32, 128)]    0           conv1d_1[0][0]                   
                                                                 tf_op_layer_add_16[0][0]         
__________________________________________________________________________________________________
batch_normalization_36 (BatchNo (None, 32, 128)      512         tf_op_layer_add_17[0][0]         
__________________________________________________________________________________________________
activation_36 (Activation)      (None, 32, 128)      0           batch_normalization_36[0][0]     
__________________________________________________________________________________________________
conv1d_2 (Conv1D)               (None, 32, 128)      65536       activation_36[0][0]              
__________________________________________________________________________________________________
batch_normalization_37 (BatchNo (None, 32, 128)      512         conv1d_2[0][0]                   
__________________________________________________________________________________________________
activation_37 (Activation)      (None, 32, 128)      0           batch_normalization_37[0][0]     
__________________________________________________________________________________________________
conv1d_3 (Conv1D)               (None, 32, 128)      65536       activation_37[0][0]              
__________________________________________________________________________________________________
tf_op_layer_add_18 (TensorFlowO [(None, 32, 128)]    0           conv1d_3[0][0]                   
                                                                 tf_op_layer_add_17[0][0]         
__________________________________________________________________________________________________
batch_normalization_38 (BatchNo (None, 32, 128)      512         tf_op_layer_add_18[0][0]         
__________________________________________________________________________________________________
activation_38 (Activation)      (None, 32, 128)      0           batch_normalization_38[0][0]     
__________________________________________________________________________________________________
conv1d_4 (Conv1D)               (None, 32, 128)      65536       activation_38[0][0]              
__________________________________________________________________________________________________
batch_normalization_39 (BatchNo (None, 32, 128)      512         conv1d_4[0][0]                   
__________________________________________________________________________________________________
activation_39 (Activation)      (None, 32, 128)      0           batch_normalization_39[0][0]     
__________________________________________________________________________________________________
conv1d_5 (Conv1D)               (None, 32, 128)      65536       activation_39[0][0]              
__________________________________________________________________________________________________
tf_op_layer_add_19 (TensorFlowO [(None, 32, 128)]    0           conv1d_5[0][0]                   
                                                                 tf_op_layer_add_18[0][0]         
__________________________________________________________________________________________________
batch_normalization_40 (BatchNo (None, 32, 128)      512         tf_op_layer_add_19[0][0]         
__________________________________________________________________________________________________
activation_40 (Activation)      (None, 32, 128)      0           batch_normalization_40[0][0]     
__________________________________________________________________________________________________
conv1d_6 (Conv1D)               (None, 32, 128)      65536       activation_40[0][0]              
__________________________________________________________________________________________________
batch_normalization_41 (BatchNo (None, 32, 128)      512         conv1d_6[0][0]                   
__________________________________________________________________________________________________
activation_41 (Activation)      (None, 32, 128)      0           batch_normalization_41[0][0]     
__________________________________________________________________________________________________
conv1d_7 (Conv1D)               (None, 32, 128)      65536       activation_41[0][0]              
__________________________________________________________________________________________________
tf_op_layer_add_20 (TensorFlowO [(None, 32, 128)]    0           conv1d_7[0][0]                   
                                                                 tf_op_layer_add_19[0][0]         
__________________________________________________________________________________________________
flatten (Flatten)               (None, 4096)         0           tf_op_layer_add_20[0][0]         
__________________________________________________________________________________________________
dense (Dense)                   (None, 256)          1048832     flatten[0][0]                    
__________________________________________________________________________________________________
dropout (Dropout)               (None, 256)          0           dense[0][0]                      
__________________________________________________________________________________________________
diagnosis (Dense)               (None, 90)           23130       dropout[0][0]                    
==================================================================================================
Total params: 6,731,866
Trainable params: 6,721,114
Non-trainable params: 10,752
__________________________________________________________________________________________________